Working on data:  bbbp
1026 117 142 285
Starting upsampling for data: bbbp
Model loaded!!
DisentGNN(
  (gnn): MultiViewGCN(
    (conv1): GCNConv(9, 32)
    (conv2): GCNConv(32, 64)
    (conv3): GCNConv(64, 64)
    (lin1): Linear(in_features=64, out_features=32, bias=True)
    (lin2): Linear(in_features=32, out_features=64, bias=True)
  )
  (mlp_z1): Linear(in_features=64, out_features=16, bias=True)
  (mlp_z2): Linear(in_features=64, out_features=16, bias=True)
  (lin1): Linear(in_features=16, out_features=32, bias=True)
  (lin2): Linear(in_features=16, out_features=32, bias=True)
  (target_lin): Linear(in_features=32, out_features=1, bias=True)
  (sensitive_lin): Linear(in_features=32, out_features=9, bias=True)
  (layer_norm_1): LayerNorm((1,), eps=1e-05, elementwise_affine=True)
  (layer_norm_2): LayerNorm((9,), eps=1e-05, elementwise_affine=True)
  (layer_norm_3): LayerNorm((16,), eps=1e-05, elementwise_affine=True)
  (batch_norm): BatchNorm1d(1, eps=1e-05, momentum=0.1, affine=True, track_running_stats=True)
)
Criterion name:  pair_loss_cos
/scratch/zheng/conda/envs/my_env/lib/python3.8/site-packages/torch_geometric/deprecation.py:22: UserWarning: 'data.DataLoader' is deprecated, use 'loader.DataLoader' instead
  warnings.warn(out)
Epoch: 01, trloss: 1.4891, trroc: 0.5552, trf1: 0.0000, tracc: 0.5420, valloss: 0.7609, valroc: 0.5193, valf1: 0.0000, valacc: 0.1709, testloss_1: 0.7601, testroc_1: 0.5224, testf1_1: 0.0000, testacc_1: 0.1761, testloss_2: 0.7601, testroc_2: 0.3254, testf1_2: 0.0000, testacc_2: 0.1649.
…
